models/arythmia/2018-07-28_16:56/2018-07-28_16:56-gmmParams.npz (npz, 630 bytes, 3 tensors)

phi f4 [2]
00000000: 2a84 363f b3f7 923e
0.71295416 0.28704605

mu f4 [2, 4]
00000000: f42f 7fbe f42f 7fbe f42f 7fbe f42f 7fbe
00000010: 289d 80be 289d 80be 289d 80be 289d 80be
-0.24920636 -0.24920636 -0.24920636 -0.24920636 -0.251199 -0.251199 -0.251199 -0.251199

sigma f4 [2, 4, 4]
00000000: b9a1 c140 587a 0ac1 301b 3c40 4087 c03f
00000010: 587a 0ac1 9414 4641 008a 86c0 b5ac 09c0
00000020: 301b 3c40 008a 86c0 9dc9 b63f cae6 3a3f
00000030: 4087 c03f b5ac 09c0 cae6 3a3f 99f7 bf3e
00000040: e453 c140 4a35 0ac1 3c34 3c40 3516 c13f
00000050: 4a35 0ac1 4f9f 4541 b48e 86c0 a908 0ac0
00000060: 3c34 3c40 b48e 86c0 2f42 b73f 13dd 3b3f
00000070: 3516 c13f a908 0ac0 13dd 3b3f ae57 c13e
6.0509915 -8.654869 2.9391594 1.5041275 -8.654869 12.380024 -4.2043457 -2.1511662
2.9391594 -4.2043457 1.4280277 0.73008406 1.5041275 -2.1511662 0.73008406 0.3749359
6.0414906 -8.63801 2.9406881 1.5084902 -8.63801 12.351394 -4.20492 -2.1567786
2.9406881 -4.20492 1.4317073 0.7338421 1.5084902 -2.1567786 0.7338421 0.37762207
